Data/Audio/embeddings/B26vV52r5-o.npy (npy, 3200 bytes, 1 tensors)

array f4 [768]
0	0xbc465a86	-0.012106543
1	0x3c789fc1	0.015174807
2	0xbdb73bba	-0.08946939
3	0xbd4481a1	-0.047975186
4	0x3e0c085d	0.13675065
5	0xbdae3513	-0.08506217
6	0x3cfb699c	0.030690007
7	0xbd2b9769	-0.041892443
8	0x3d868d4e	0.065699205
9	0xbea96462	-0.33084399
10	0xbd294a32	-0.041330524
11	0xbc9f5f08	-0.019454494
12	0x3d443338	0.04790041
13	0x3d4f24ee	0.05057233
14	0xbda0b0ce	-0.07846223
15	0xbcef536c	-0.029214583
16	0xbe57be29	-0.21068634
17	0x3e9bfb26	0.3046505
18	0x3c515c3c	0.012778338
19	0x3d193feb	0.037414473
20	0xbe274195	-0.16333611
21	0x3d8ff193	0.070284985
22	0x3dcb5cea	0.09929831
23	0x3ccf28dd	0.02528804
24	0x3d6cd0a7	0.057816174
25	0xba9dc668	-0.0012037279
26	0xbe6e9cd7	-0.23302017
27	0x3ccbd035	0.024879554
28	0xbc318d87	-0.010836965
29	0xbe06e605	-0.13173683
30	0x3dc7e060	0.09759593
31	0xbc5a1afb	-0.013312097
32	0xbd294a5f	-0.04133069
33	0xbd47672c	-0.048682377
34	0xbe504086	-0.20337114
35	0xbd165fe6	-0.03671255
36	0x3cc003b9	0.023439275
37	0xbe84626e	-0.25856346
38	0xbde57b26	-0.11205129
39	0xbbe7c7f9	-0.007073399
40	0xbe1bee06	-0.15227517
41	0xbdd8d856	-0.10588138
42	0xbe0b6e3f	-0.13616274
43	0x3e0c2f1e	0.13689849
44	0xbdfed8ce	-0.12443696
45	0x3dadf276	0.084935114
46	0xbd5c34ef	-0.05376142
47	0xbdc26653	-0.09492173
48	0xbbc76638	-0.0060851835
49	0x3cd35b3c	0.02580034
50	0xbdfe06a2	-0.12403609
51	0x3c952f57	0.01821105
52	0x3d562b3e	0.052287333
53	0x3cdcf0bc	0.02697026
54	0x3d09fb01	0.03368664
55	0x3d43a4c8	0.04776457
56	0x3c985201	0.01859379
57	0xbe8c058b	-0.2734798
58	0xbde99436	-0.11405222
59	0xbe2b59b9	-0.16733445
60	0xbd482d5c	-0.048871383
61	0xbcf2fba2	-0.029661004
62	0x3cb708ba	0.022343028
63	0x3cf50220	0.02990824
64	0xbc81549e	-0.015787419
65	0x3da44b26	0.08022146
66	0xbc8a2eb5	-0.016867975
67	0xbdc057f9	-0.093917795
68	0xbda36080	-0.0797739
69	0xbd4f8d9d	-0.050672162
70	0xbd08916f	-0.03334182
71	0xbd07f29c	-0.033190355
72	0xbdb56dc7	-0.08858829
73	0xbda57093	-0.080781125
74	0x3ca10fd8	0.019660875
75	0xbc396baf	-0.011317178
76	0xbcf210cf	-0.02954903
77	0xbda9e2d8	-0.0829522
78	0x3b9205d7	0.0044562626
79	0xbe026201	-0.12732698
80	0xbd25d684	-0.04048778
81	0x3dc52e37	0.096279554
82	0x3c8d5374	0.017251708
83	0x3ca04904	0.019566067
84	0xbd02bbef	-0.03191751
85	0x3d4248b4	0.047432616
86	0xbd9a0e18	-0.075222194
87	0xbe15d472	-0.14631823
88	0xbce70e8f	-0.028205184
89	0x3d824299	0.06360359
90	0x3e8c5b05	0.27413192
91	0xbcfb6dc7	-0.030691994
92	0x3e0fb32d	0.14033194
93	0x3d6c4f36	0.05769273
94	0x3d928788	0.07154757
95	0x3bd35137	0.0064488905
96	0x3dcee9cb	0.10103186
97	0x3d07c689	0.033148322
98	0xbcb77310	-0.022393733
99	0xbe0a1de4	-0.13487965
100	0xbd0f8a5b	-0.035044055
101	0xbdefdcf5	-0.11712066
102	0x3d1a91fe	0.037736885
103	0xbdee5d80	-0.116389275
104	0x3dffd89c	0.12492487
105	0x3e4dd0cd	0.20099182
106	0xbd5b1eb5	-0.05349608
107	0x3e34be34	0.17650682
108	0x3c13f4d6	0.009030541
109	0x3d97e661	0.07416988
110	0xbd10a8e5	-0.03531732
111	0x3d0fd9c0	0.035119772
112	0xbdd46409	-0.10370643
113	0xbbf6b484	-0.0075288434
114	0xbdc93a29	-0.09825546
115	0xbcfc5036	-0.030799966
116	0x3d8df28e	0.06931029
117	0xbc3237d1	-0.0108775655
118	0xbd405f6e	-0.04696601
119	0xbe0f16a0	-0.13973475
120	0x3d37f243	0.044908773
121	0xbc78cfde	-0.015186278
122	0x3e0e5061	0.1389785
123	0x3a2a9ca6	0.0006508328
124	0xbc02075a	-0.007936323
125	0xbe01ed60	-0.12688208
126	0x3de19051	0.11013854
127	0x3eb6dd36	0.35715646
128	0xbdbe773e	-0.093000874
129	0x3dba118c	0.09085378
130	0xbc92bfa6	-0.01791365
131	0xbe10c5a8	-0.141379
132	0xbda9d0ef	-0.08291804
133	0xbce8f7db	-0.0284385
134	0xbdccb9dd	-0.09996388
135	0xbd7283ce	-0.05920773
136	0xbe054049	-0.13012804
137	0xbcf1df1b	-0.02952533
138	0xbc9f225a	-0.01942556
139	0xbe6f3739	-0.2336091
140	0x3c42e9cb	0.011896561
141	0x3d1d07a8	0.03833738
142	0xbc000451	-0.007813529
143	0x3e67efb9	0.2265004
144	0x3db51cc4	0.08843377
145	0x3d371c22	0.044704564
146	0xbedc0d33	-0.4297882
147	0x3caffbf9	0.021482455
148	0xbe40078a	-0.18752876
149	0x3d7961f6	0.06088444
150	0x3d90d332	0.07071532
151	0x3d423da1	0.047422055
152	0x3d0301da	0.031984188
153	0xbe2ef5e7	-0.17085992
154	0x3d8804f7	0.06641572
155	0x3d20a741	0.039222006
156	0xbc91ca0d	-0.01779654
157	0x3c773a80	0.015089631
158	0x3e1703ab	0.14747493
159	0x3c8319b5	0.016003469
160	0xbe193ccc	-0.14964598
161	0x3e865bb2	0.26241833
162	0x3dd10b6e	0.10207258
163	0xbbcd8fb3	-0.006273234
164	0x3cd3e48e	0.02586582
165	0xbd5625e8	-0.052282244
166	0xbe0bee83	-0.13665204
167	0xbd8d560f	-0.0690118
168	0x3e8be676	0.27324265
169	0x3e1d9fba	0.15392962
170	0x3d482629	0.048864517
171	0x3ae003bd	0.0017090958
172	0x3c5ba6fb	0.01340651
173	0x3e598208	0.21241009
174	0xbbb45d8c	-0.0055043157
175	0xbe2f9900	-0.17148209
176	0x3c6d628a	0.014488826
177	0x3d037232	0.032091327
178	0xbdc771be	-0.097384915
179	0x3b6917a0	0.003556706
180	0xbcceb52e	-0.025232878
181	0xbc92e133	-0.017929649
182	0xbc7af2f1	-0.015316711
183	0xbe7378c1	-0.23776533
184	0xbde02143	-0.10943844
185	0xbd11c3f5	-0.03558727
186	0xbda248aa	-0.07924016
187	0xbe6059b5	-0.2190922
188	0xbe0e71e3	-0.13910632
189	0x3d36fa01	0.044672016
190	0xbda9bf1e	-0.08288406
191	0xbd7f79e2	-0.062372096
192	0xbd9df56b	-0.077128254
193	0xbbc73729	-0.0060795736
194	0xbcaad470	-0.020853251
195	0x3da9fa23	0.08299663
196	0xbdbcac37	-0.09212535
197	0x3eb238ff	0.3480911
198	0xbd1fc6a9	-0.039007816
199	0xbcb421c7	-0.021988763
200	0x3cf9f6cc	0.03051319
201	0x3c80d4a0	0.015726388
202	0xbe37323f	-0.17890261
203	0x3e1ffff5	0.15624984
204	0xbe347906	-0.17624292
205	0x3df14bae	0.11782013
206	0x3c816e10	0.015799552
207	0xbd71e066	-0.059051894
208	0x3d049571	0.03236908
209	0x3e752807	0.2394105
210	0xbea350f8	-0.31897712
211	0x3d8c134f	0.0683962
212	0xbbeee077	-0.007289942
213	0x3c4d9fb9	0.012550288
214	0x3cf37a9a	0.029721547
215	0xbdaf4881	-0.08558751
216	0x3da8ea96	0.08247869
217	0xbe10e100	-0.1414833
218	0xbc98957c	-0.018625967
219	0x3d704fcf	0.05866986
220	0xbdc8b2e5	-0.097997464
221	0xbce73bfa	-0.028226841
222	0xbe858f9d	-0.2608613
223	0xbd1689a3	-0.036752354
224	0xbc5a8307	-0.013336903
225	0x3cf2a5aa	0.02962001
226	0xbbb5db2d	-0.0055498094
227	0x3e50bc96	0.2038444
228	0xbd9dbea4	-0.077023774
229	0x3de4729f	0.11154675
230	0x3cb38d3b	0.02191793
231	0x3c15451c	0.009110715
232	0x3d052d64	0.03251399
233	0xbd6420f3	-0.055695485
234	0x3cda4061	0.026642026
235	0x3c03c870	0.0080433935
236	0xbbb23ec7	-0.0054396125
237	0xbb2443d1	-0.0025064836
238	0xbd5918d0	-0.05300218
239	0x3d8c8e86	0.06863122
240	0x3d87e17c	0.066348046
241	0xbe8247fb	-0.25445542
242	0x3bfd4e32	0.007730269
243	0xbda56fd8	-0.08077973
244	0xbe05331d	-0.1300778
245	0x3ca46d00	0.020071507
246	0xbd38b2bd	-0.045092333
247	0x3e164056	0.1467298
248	0x3d9bff05	0.076170005
249	0xbcaff925	-0.021481106
250	0xbd1fbf2b	-0.03900067
251	0x3e2ef9c8	0.17087471
252	0x3d0d9478	0.03456542
253	0x3ce8b84d	0.028408194
254	0xbc54b36c	-0.012982231
255	0x3dd1dfd0	0.10247767
