Data/Audio/embeddings/B9gx7DuyxJk.npy (npy, 3200 bytes, 1 tensors)

array f4 [768]
0	0xbcbdce2e	-0.023169603
1	0x3bbc5391	0.0057472666
2	0xbd2c1532	-0.0420124
3	0xbd58fddc	-0.052976474
4	0x3c93e848	0.018055096
5	0xbdc76306	-0.09735684
6	0x3d5e044f	0.054203328
7	0xbceaa2ec	-0.02864214
8	0x3d86f688	0.06589991
9	0xbeb0dd87	-0.34544012
10	0xbc83329f	-0.016015349
11	0x3bdcb8e1	0.0067359065
12	0x3d1cea48	0.038309366
13	0x3d8a894c	0.067644686
14	0xbd6d4a7e	-0.05793237
15	0x3b9adc9d	0.004726006
16	0xbea14af1	-0.31502488
17	0x3e959da8	0.29221845
18	0x3c9dfbc0	0.019285083
19	0x3d6d1aac	0.057886764
20	0xbe3a7ed9	-0.18212451
21	0x3dd50481	0.1040125
22	0xbcf8d720	-0.030376017
23	0x3c87df12	0.01658586
24	0x3c93930a	0.01801445
25	0x3bd2e406	0.006435874
26	0xbe8b5e0c	-0.2722019
27	0x3d31ea93	0.043436598
28	0xbd462cee	-0.048382692
29	0xbdf8ab7f	-0.12142085
30	0x3e05c380	0.13062859
31	0xbc3396a4	-0.0109612085
32	0x3cb35ce0	0.021894872
33	0xbd82de73	-0.06390085
34	0xbe42bf1f	-0.1901822
35	0x3ce04678	0.027377352
36	0x3d37f25c	0.044908866
37	0xbe793341	-0.24335958
38	0xbdb0246b	-0.08600696
39	0x3d801661	0.062542684
40	0xbe08f361	-0.13374092
41	0xbe355a20	-0.17710161
42	0xbdcad426	-0.09903745
43	0x3e671663	0.22567134
44	0xbde9ba44	-0.114124805
45	0x3cb50087	0.022094978
46	0xbd27c765	-0.04096164
47	0xbd91f3cf	-0.07126581
48	0x3b8c09a9	0.0042736125
49	0x3c74e7e7	0.014947868
50	0xbe00832b	-0.12550037
51	0xbcc90c1e	-0.02454191
52	0x3dda0806	0.106460616
53	0x3cfb33ea	0.030664403
54	0x3d2604fa	0.04053209
55	0xbb873d60	-0.0041271895
56	0x3baad7d7	0.0052137184
57	0xbea3df93	-0.3200651
58	0xbe055c04	-0.13023382
59	0xbe18573f	-0.14877032
60	0xbd099522	-0.03358949
61	0xbc404662	-0.011735531
62	0x3cb72b3e	0.022359487
63	0x3d1a0539	0.037602637
64	0xbd270e62	-0.0407852
65	0x3da3f1d6	0.08005111
66	0xbc171c23	-0.009223017
67	0xbd82054f	-0.06348669
68	0xbde85f4c	-0.113463014
69	0xbd24075b	-0.040046077
70	0xbbf19ec0	-0.007373661
71	0xbcf11e9c	-0.029433541
72	0xbe0fe5d2	-0.14052513
73	0xbd161524	-0.036641255
74	0x3d0cda79	0.03438804
75	0xbc8d41a8	-0.017243221
76	0xbdad2887	-0.084549956
77	0xbde3b2dd	-0.111181
78	0xbbd91171	-0.0066243936
79	0xbdbef1ca	-0.09323461
80	0xbd2fa4ee	-0.0428819
81	0x3df82452	0.121163025
82	0x3ce46a5b	0.027882745
83	0x3d4e0058	0.050293297
84	0xbced91d9	-0.02900021
85	0x3d8caa09	0.06868369
86	0xbd943c41	-0.07238055
87	0xbe428fec	-0.19000214
88	0xbce45fdf	-0.027877746
89	0x3d743c7c	0.059627995
90	0x3e9f985c	0.31170928
91	0xbd87c933	-0.066301726
92	0x3e1400af	0.14453386
93	0x3d715e65	0.058927912
94	0x3d9c85a9	0.07642681
95	0xbc87c4c1	-0.016573312
96	0x3d813d6a	0.06310542
97	0x3d473a0b	0.04863934
98	0xbd025287	-0.031816985
99	0xbdd41cba	-0.10357042
100	0xbcb2af30	-0.021812052
101	0xbdd7bb74	-0.10533801
102	0x3b85ea57	0.0040867734
103	0xbe265cc5	-0.16246326
104	0x3e223e46	0.15844068
105	0x3e8e7d93	0.2783018
106	0x3bdab2c8	0.0066741444
107	0x3e2dbd4b	0.16966741
108	0x3c9873c1	0.018609883
109	0x3dd7fbb1	0.10546053
110	0xbb9b5efa	-0.0047415467
111	0x3cd5ca5f	0.026097475
112	0xbd7f98c0	-0.062401533
113	0xbc46306c	-0.012096506
114	0xbdf672c2	-0.12033607
115	0x3c9af462	0.018915359
116	0x3d6fc1b0	0.058534324
117	0xbd532efe	-0.051558487
118	0xbd6d32d8	-0.057909817
119	0xbd9d0f4d	-0.07668934
120	0x3dce9675	0.10087291
121	0xbc9e8d7c	-0.019354574
122	0x3e0b635c	0.13612121
123	0xbbe4b8a5	-0.006980019
124	0x3b6c8a31	0.003609311
125	0xbe6fe10f	-0.23425697
126	0xbd04dcea	-0.032437243
127	0x3ec1e7ef	0.37872264
128	0xbdadcf5e	-0.08486818
129	0x3dbc037b	0.09180351
130	0x3ccbc019	0.024871873
131	0xbe18cafe	-0.14921185
132	0xbaa5625d	-0.0012617816
133	0x3caf95fb	0.021433821
134	0xbde2dc80	-0.11077213
135	0xbda95fb1	-0.08270205
136	0xbe1cd2a9	-0.15314735
137	0xbc39ebc4	-0.011347715
138	0xbb187384	-0.0023262212
139	0xbeeec8e0	-0.4663763
140	0x3bad3750	0.005286135
141	0x3cefb094	0.029259004
142	0xbc469722	-0.012120994
143	0x3e141be1	0.1446376
144	0x3de3fcbd	0.111321904
145	0x3d0b95ef	0.034078535
146	0xbedc4562	-0.43021685
147	0x3dbfc784	0.093642265
148	0xbe226bb3	-0.15861396
149	0x3c29d671	0.010366068
150	0x3cc612c3	0.024178868
151	0x3d4adbb0	0.049525917
152	0x3d80380e	0.062606916
153	0xbe8e34b5	-0.27774587
154	0x3d91d4a1	0.07120634
155	0xbd6149f7	-0.05500218
156	0x3b8177e1	0.0039510583
157	0xbbcda70c	-0.006276017
158	0x3cd62bb0	0.026143879
159	0x3cd5fa50	0.026120335
160	0xbe34371b	-0.17599146
161	0x3e96a57d	0.29423133
162	0x3dda1c16	0.10649888
163	0xbd22ee93	-0.039778303
164	0x3da1b47a	0.07895751
165	0xbd2cf8d1	-0.042229477
166	0xbde2a450	-0.11066496
167	0xbdbd1fd7	-0.092345886
168	0x3e90d2d6	0.28285855
169	0x3e22f0a3	0.15912108
170	0x3d429e9a	0.047514535
171	0x3c19a91a	0.009378696
172	0x3d564320	0.05231011
173	0x3e61f600	0.22066498
174	0xbbbc19a3	-0.005740361
175	0xbde3c0a9	-0.111207314
176	0xbde37cac	-0.11107764
177	0x3cf32564	0.029680915
178	0xbc8bdb24	-0.017072268
179	0xbb1c9ae7	-0.002389604
180	0xbb9d16dd	-0.0047939853
181	0xbb248c02	-0.0025107865
182	0xbd8b2ba8	-0.06795436
183	0xbe5f708e	-0.2182028
184	0xbe189a93	-0.14902715
185	0xbd145375	-0.036212403
186	0xbd80d795	-0.06291119
187	0xbe3af8a8	-0.18258917
188	0xbdefa3e5	-0.11701182
189	0xbcc95332	-0.024575803
190	0xbe1cba1e	-0.15305373
191	0xbd6b994b	-0.05751924
192	0xbdae7e70	-0.0852021
193	0xba5bcece	-0.00083850033
194	0xbc8d02e2	-0.017213289
195	0x3da74068	0.081665814
196	0xbdaff7e7	-0.085922055
197	0x3ea35790	0.31902742
198	0x3c70aaf1	0.014689193
199	0x3bfd89df	0.007737383
200	0x3cd025c4	0.025408633
201	0x3c030441	0.00799662
202	0xbe5f2723	-0.21792273
203	0x3e23d508	0.15999234
204	0xbe79aebd	-0.24383064
205	0x3dfc75b6	0.12327139
206	0x3c7938b4	0.015211273
207	0xbd9d9c5d	-0.076958396
208	0x3cba5b92	0.022748742
209	0x3e874441	0.2641926
210	0xbec4db74	-0.3844868
211	0x3d85f7d0	0.06541407
212	0xbbec49fb	-0.0072109676
213	0xbbfbac32	-0.0076804394
214	0x3cf52432	0.029924486
215	0xbdb4f030	-0.08834875
216	0x3da9f4d2	0.08298649
217	0xbdd3cad6	-0.10341422
218	0xbcaf444a	-0.021394867
219	0x3cdcfa02	0.026974682
220	0xbdd7b679	-0.10532851
221	0xbd01f398	-0.03172645
222	0xbe8c244e	-0.27371448
223	0xbdf58c23	-0.119896196
224	0xbd7f0b96	-0.06226691
225	0xbca5b111	-0.020226033
226	0xbbbab411	-0.005697735
227	0x3e594234	0.2121666
228	0xbd6d311c	-0.057908162
229	0x3c7029dd	0.0146584185
230	0xbcd63d2e	-0.02615222
231	0x3b88ed41	0.0041786735
232	0x3d149f9e	0.036285035
233	0xbd014879	-0.031563256
234	0xbd842402	-0.064521804
235	0x3b54765b	0.0032419178
236	0xbc0a3a99	-0.008436822
237	0xbb261ca4	-0.002534666
238	0xbdc376a1	-0.09544111
239	0x3cf0358a	0.029322404
240	0x3db64dee	0.08901583
241	0xbe5785a6	-0.21047077
242	0x38356bea	4.3254266e-05
243	0xbdacc51f	-0.08436035
244	0xbe1e4daa	-0.15459314
245	0x3ca4fe36	0.020140748
246	0xbd36d145	-0.04463317
247	0x3e23c0a5	0.15991457
248	0x3db0b9ef	0.08629214
249	0xbe10f9f5	-0.14157851
250	0xbd1b3b2b	-0.037898224
251	0x3e75279e	0.23940894
252	0x3d3263e3	0.04355229
253	0x3c9d6720	0.019214213
254	0xbc899998	-0.016796872
255	0x3e040d1e	0.12895629
