Data/Audio/embeddings/pvv5L_B7Abo.npy (npy, 3200 bytes, 1 tensors)

array f4 [768]
00000000: 76d9 45bc 25d8 a23c ade5 83bd 6035 66bd
00000010: 8db0 1ebd 0d30 c3bd 43c4 443d f525 babc
00000020: 3b47 d43c 020f b0be c04f 2dbc ea7b 80bd
00000030: 7b2a 6b3d 9812 a73d dc5e 5dbd a945 6c3d
00000040: e9d2 ccbe a9fb 923e c368 873c 6268 b23d
00000050: e242 34be 4d01 ce3d 9196 2f3e 4b7c 9c3c
00000060: 737a 873e 8a10 043d 79dc e6be f4b9 ac3d
00000070: fe3d 3ebd 558f 1dbe 79c6 283e dd4c 33bc
00000080: eec0 45bc ff72 8fbd be6e 68be 6a1c 653d
00000090: 4ebb 8d3c cdeb 75be b6d1 febd 1515 bf3d
000000a0: 03ac ccbd 9a31 5fbe 1073 4fbe 6093 443e
000000b0: 16c0 f4bd 5cc5 993d 3e3d 54bd d8f9 80bc
000000c0: dd4e eabb 3893 7e3c 704b eabd 2822 29bd
000000d0: 1e15 da3d 26e3 073d b1d5 223d f21b afba
000000e0: dbe0 0a3c 5ca4 d1be 2d4b 2ebe 80e4 1ebe
000000f0: f6e4 7dbd b91a 5fbd 53c6 b23c 5764 b83d
00000100: 7508 8ebd a369 933d 853d ffbb 6154 0bbe
00000110: 55cc 35be f8be 39bd 1922 c4ba a9a1 cebc
00000120: 11cc 4cbe f6af 24bd d025 bd3d 624b 1dbd
00000130: aa87 c0bd 5e78 8ebd 77c6 b3ba f894 4fbd
00000140: 6426 a0bd 81cd 9b3e ce5d 8c3d da0f 4d3d
00000150: a9bd 08bd eee8 753c 5fc9 84bd 3672 44be
00000160: efe1 e1bc 2f32 733d cb99 a33e 6dd1 a5bd
00000170: c4b3 003e 0d45 8e3d c3f3 a23d 0bf1 1fbd
00000180: 6db5 fa3d 94a6 9b3d 9cd6 28bd ad01 d2bd
00000190: 83cd aebc 8855 edbd 2b88 593d e058 42be
000001a0: cdc2 2d3e 5f58 983e cef7 43bc 4d43 293e
000001b0: 3f49 213c 19a6 1a3e 4273 423c 3f66 343d
000001c0: 5c49 40bd fa08 39bc 1102 32be 2441 cf3c
000001d0: 70fa 4a3d bf2b ae3d 1d8a c2bd 87fc 81bd
000001e0: 3c4e bf3d e15e c6bc bd6c e63d 8c31 243b
000001f0: 779c 4a3c e55d 91be a49f 4f3c dbb5 c03e
00000200: 4088 92bd bac8 dc3d 12c6 ac3c 4dee 1bbe
00000210: 879b 603d 8ae9 013d 3a23 c4bd e5d8 6cbd
00000220: 5df6 54be 7de5 f4bc ac67 5fbc b722 eabe
00000230: b56a 233b 62bc 833d 0327 3abc 3b5b c53d
00000240: 5d01 ee3d 51c5 bd3c f843 0abf 8c60 093e
00000250: 4b9a 61be d087 d73c 5563 ca3c e0f0 7b3d
00000260: c6cd 273d a3a9 d3be 1c9d 683d 3297 5ebc
00000270: 8321 eb3c be6e 0dbd 3c01 1e3e 0ca9 b9bb
00000280: d0b4 3fbe 9486 a43e db84 f33d 9059 a4ba
00000290: edb4 cb3d 122c 18bd 80a3 16be df5e e4bd
000002a0: cd19 993e 0cf5 3f3e 1b71 393d 7211 3cbc
000002b0: 2567 883d a0a5 703e 96d0 c6bb 947a 3dbe
000002c0: 3266 4ebe d21d 0a3d ce6e 81bd 7dd4 2bb8
000002d0: 38eb 26bc e344 3b3b 9015 93bc 8780 42be
000002e0: 6aee acbd c478 15bd 231f 97bd b951 4abe
000002f0: e402 dbbd 44ec e2bc ab4a 11be 3f01 80bd
00000300: e1aa 73bd 1999 72bb 90b9 23bc 263b bc3d
00000310: d481 c8bd d028 a23e a868 acbb 4473 c23c
00000320: 0f3f f23c 9ac9 303c e988 3bbe efcb 5a3e
00000330: e749 80be 0403 7e3e ad60 bc3c 5a96 91bd
00000340: 16e5 533d 4f2c 823e 1266 fbbe 0206 ae3d
00000350: 08c5 f4bb 0d97 aabd 54d1 f53c c162 99bd
00000360: 269a 943d 13ad cdbd f732 eebc c86d 563d
00000370: cc21 1fbe 6fa6 0abd 79fb 87be f9dd 3bbd
00000380: 2692 c2bd 2041 3cbd 59dd bbbb cc2d 423e
00000390: da85 9bbd 0e10 293d ef73 733b 98f5 7abb
000003a0: 157e 013d de26 2ebd 637c 8b3b 2b68 f5ba
000003b0: d95d eebb b279 24bb f8af cfbd 8b3a 253d
000003c0: 5f29 003e 45c2 6abe b8bd 62bc 49f6 a8bd
000003d0: aeb2 3abe 2a4b a43c 746e 39bd 00e3 333e
000003e0: ff4c bf3d a3d3 17be ca84 13bd f8d7 7b3e
000003f0: e924 953d 30d0 df3c 56f8 543a 5e33 183e
-0.0120757725 0.019878456 -0.064402916 -0.056203246 -0.03874259 -0.09530649 0.048038732 -0.022723177
0.025912872 -0.3438645 -0.010578096 -0.06273635 0.05741356 0.08157843 -0.054045543 0.05768362
-0.40004662 0.28707626 0.016529446 0.08711316 -0.17603639 0.10058842 0.1714728 0.019102236
0.2646061 0.032242335 -0.45090082 0.08433905 -0.04644584 -0.15386708 0.16481961 -0.010943619
-0.012069924 -0.07004356 -0.22698495 0.0559353 0.017301228 -0.24015732 -0.12442343 0.09330193
-0.09993746 -0.21796265 -0.20258737 0.19196844 -0.119507 0.075083464 -0.051816218 -0.015744135
-0.0071505145 0.015538029 -0.1144017 -0.04129234 0.10648559 0.03317561 0.039754573 -0.0013359769
0.008476461 -0.4094571 -0.17020865 -0.15516853 -0.061985932 -0.054468844 0.021823084 0.09003513
-0.06935207 0.07197883 -0.007789316 -0.13606407 -0.17753728 -0.045348138 -0.0014963775 -0.02522357
-0.1999972 -0.040206872 0.09235728 -0.03840197 -0.09400876 -0.06956552 -0.0013715763 -0.050679177
-0.078198224 0.30430225 0.06853829 0.050063945 -0.033384 0.015009148 -0.06483721 -0.19184193
-0.027573554 0.05937403 0.31953272 -0.080965854 0.12568575 0.06946764 0.0795665 -0.039048236
0.122416355 0.07600132 -0.041220292 -0.10254226 -0.02133823 -0.115885794 0.053108376 -0.18979216
0.16968842 0.29754922 -0.011960937 0.1652958 0.009844123 0.15102424 0.0118683 0.044042822
-0.04694496 -0.011293644 -0.17383601 0.025299616 0.049555242 0.08504438 -0.09498999 -0.06346994
0.09341094 -0.024215164 0.11251209 0.0025053946 0.012366406 -0.28391948 0.012672339 0.37638745
-0.07154894 0.10780473 0.021090541 -0.15227623 0.054835822 0.03171686 -0.095770314 -0.057824034
-0.20797105 -0.029894585 -0.013635557 -0.4572961 0.0024935429 0.064324155 -0.01136184 0.096365415
0.11621354 0.023165377 -0.5400996 0.13415736 -0.22031514 0.026309878 0.024705568 0.061509013
0.040967725 -0.4134036 0.056790456 -0.013585852 0.028702503 -0.03452944 0.15430158 -0.005665904
-0.18721318 0.32133925 0.118905745 -0.0012538899 0.09946618 -0.037151404 -0.14710808 -0.11150908
0.29902497 0.18745822 0.04527388 -0.011478769 0.06660298 0.23500681 -0.006067346 -0.18503791
-0.20156172 0.033719845 -0.063199624 -4.0967472e-05 -0.010187916 0.0028574995 -0.017954618 -0.18994342
-0.084439114 -0.036492124 -0.07378986 -0.19757737 -0.10693911 -0.02770055 -0.1418864 -0.06250238
-0.059489135 -0.0037017523 -0.009992972 0.09190969 -0.09790388 0.31671762 -0.0052614994 0.023736604
0.029571084 0.010790253 -0.18313946 0.21366857 -0.25056383 0.24805838 0.022995317 -0.071087554
0.051732145 0.2542443 -0.4910131 0.0849724 -0.007469777 -0.08329592 0.030007042 -0.07489539
0.07255964 -0.10042777 -0.029077036 0.05235079 -0.15540236 -0.03385013 -0.26559046 -0.045865986
-0.09500532 -0.045960546 -0.005733174 0.18962783 -0.075938895 0.041275077 0.003714796 -0.0038293358
0.03161438 -0.042517535 0.0042567714 -0.0018723061 -0.007274371 -0.002509695 -0.10140985 0.040339034
0.12515782 -0.2292567 -0.013839178 -0.082501 -0.18232223 0.020055372 -0.045271352 0.17567062
0.09340858 -0.14826827 -0.03601531 0.24594104 0.07282431 0.027320951 0.0008124163 0.14863345
