Data/Audio/embeddings/W1FXk632mKE.npy (npy, 3200 bytes, 1 tensors)

array f4 [768]
00000000: f277 01bd 4d86 733c 8fc6 06bd 0bfc 66bd
00000010: 1ec4 abbc 0319 e1bd 3a10 843d de41 08bd
00000020: e234 1e3d ab43 a7be 03e5 e6bb 7699 21bd
00000030: 767b 6d3d e31c 993d 443a 92bd 14f3 5cbc
00000040: 79c9 f6be dc43 923e f0b9 ae3c e200 f83d
00000050: c3c8 32be f6c4 9b3d 7be8 3d3e 7b2c a33b
00000060: dbd5 4f3e aae7 283d 4670 05bf 9820 5d3d
00000070: 5fa0 1d3c 69f0 3dbe b1d4 353e 8ff5 3ebc
00000080: 59da bfbc e193 a3bd c147 44be 8c8b 983d
00000090: 5c57 1a3d 8cd4 5dbe e008 06be 418c 883d
000000a0: a9e5 9cbd fa03 43be 1e7c 2bbe ec5c 793e
000000b0: dc68 47be 9856 873d 5697 55bd 00f6 21bd
000000c0: 2539 343c ed99 a33b 5a81 d8bd d028 73bd
000000d0: f755 10bb 4ce6 5f3c 51e8 a43c c0ba d7bc
000000e0: 089e 033b dc93 e3be 1540 00be 425a 14be
000000f0: 1d8f d5bd 2505 16bd 9703 aa3c 7688 3d3e
00000100: 582c 40bd 013a cd3d 2d00 9fbb f773 95bd
00000110: bfb2 17be bce9 18bd 6892 ac3c 1420 dbbc
00000120: 6d0a 2ebe c8b7 18bd 3f0b a43d 50f6 e2ba
00000130: 42b2 d8bd 95df d4bd 212f 1cba f9ec 51bc
00000140: 83d6 91bd d365 823e 85ac 683d 41f5 c43c
00000150: 4e7c ebbc 1993 4cbd d52c 8ebd eb74 51be
00000160: 7093 e1bc 7cda 3c3d 37a5 ef3e 0936 2fbe
00000170: 0010 f53d 3140 5b3d a757 9c3d b526 1dbd
00000180: 8adb df3d 993e 843d 0512 37bd 8b9d c4bd
00000190: e4d1 cebc 9a30 fdbd 436c a93b fcea 1dbe
000001a0: 1a88 313e e2ba 8b3e 1233 12bd ecbb 0e3e
000001b0: cbcc 923c f184 283e 4a96 493c 6ce3 a13d
000001c0: 835f 3cbd 347e 87bb 01ce 36be 87d9 2d3d
000001d0: 8120 433d 7755 7d3d 06f1 b0bd 5da1 29bd
000001e0: 600f dd3d 10e0 00bd da15 2d3e cd3a 14bb
000001f0: 28b2 873c bf45 79be d8ee fc3c 750d b83e
00000200: 8ea5 c7bd bd59 b53d 2679 933d 86ac 89bd
00000210: 5da6 913b 61e9 693d b119 dcbd a866 8bbd
00000220: c745 54be c545 9abb 4990 c63c 656d 27bf
00000230: 7b73 583b d986 093d 1543 26bc 00ae d53d
00000240: d075 e83d 8487 a93b b8cc 1fbf 8441 183e
00000250: a6c7 2bbe f4c4 2c3d 155e 9ebb 7514 a83d
00000260: 8599 0c3e 506e a8be 005c 383d 5364 04bd
00000270: e620 013d 32d3 84bc c683 2d3e 4450 41bd
00000280: 3668 45be 2cdf 933e 97e0 0e3e 786f b23b
00000290: 2232 ba3d 91af 19bd eae3 f8bd c922 f7bd
000002a0: d275 a43e 12a1 2c3e 6557 373d 68de 943c
000002b0: fa9c 823d 1883 833e 46c1 d0bb 4e28 e7bd
000002c0: 29ab 80be cd43 e83c a4e3 12bc 0cca 40bb
000002d0: a922 6b3c 915c b1bb 9e70 31bd 793f 55be
000002e0: ead7 87bd a0ef 15bd 3376 5fbd 4289 4bbe
000002f0: 1b00 d5bd 7da1 fdbb 3765 f9bd bf92 8ebd
00000300: d967 92bd 4242 19bc a713 a1bb 08bb f13d
00000310: a2eb 9dbd 1c7f 823e b439 203c 9136 bb3b
00000320: 8326 ba3c e49d 8d3c 27bb 89be ab0f 503e
00000330: a355 7dbe 53c4 6c3e 01e6 2a3c 3666 8fbd
00000340: a00a 0a3d ef91 883e d206 fcbe c6a3 8a3d
00000350: b814 e9bb 1947 2bbd 0c47 f83c acc2 7ebd
00000360: 3953 933d 9637 acbd 691c ddbc 4402 1c3d
00000370: e99c ddbd 3286 0dbd 360f 85be 62b4 b6bd
00000380: d538 a9bd ad2e 9cbc a9d8 bdbb 4f3b 5c3e
00000390: 1c40 d8bd 6d4e aa3b cfa6 e33b 20d8 aabc
000003a0: 6f33 013d 7b03 f6bc 388f 93bd 7601 45bb
000003b0: 5d92 08bc d154 2ebb c806 b7bd 58d8 8b3b
000003c0: aa9a 573e ca43 7abe d434 e3bb 16cd 79bd
000003d0: cccd 17be 68ba a53c 174d 1fbd fb97 343e
000003e0: 2d56 b23d 576c 91be 4a90 0cbd 3a57 8b3e
000003f0: 6ceb 2f3d 869f 433d cfcd c8bb dd4d 113e
-0.03160853 0.014863563 -0.032904204 -0.05639271 -0.02096754 -0.10991099 0.064484075 -0.03326594
0.03862465 -0.32668814 -0.0070463433 -0.039452992 0.05797907 0.07476213 -0.071400195 -0.013485689
-0.48200586 0.28567398 0.021328896 0.121095434 -0.17459397 0.07605927 0.18545716 0.0049796677
0.20296423 0.041236557 -0.5212444 0.053986162 0.009620755 -0.1854874 0.17756917 -0.011655225
-0.023419546 -0.0798719 -0.19167997 0.074484915 0.03768097 -0.21663111 -0.13089323 0.06667376
-0.07660992 -0.19044486 -0.16746566 0.24351853 -0.19473594 0.06608313 -0.05214628 -0.039541245
0.010999952 0.0049927146 -0.10571547 -0.059365094 -0.0022023895 0.013665747 0.020130308 -0.026334167
0.0020083208 -0.44448745 -0.12524445 -0.14487556 -0.10427687 -0.036626 0.020753665 0.18509087
-0.04691729 0.10020829 -0.004852316 -0.07297509 -0.1481428 -0.03733228 0.021065906 -0.026748694
-0.16996165 -0.037284642 0.080099575 -0.0017315838 -0.10580875 -0.103942074 -0.00059579505 -0.012812846
-0.07120993 0.2546831 0.056805152 0.024042727 -0.028745797 -0.04994497 -0.06942145 -0.20454757
-0.027536124 0.0461068 0.46805736 -0.17110457 0.119659424 0.053528015 0.07633906 -0.038366992
0.10930546 0.06457252 -0.04469492 -0.096003614 -0.025246568 -0.12362786 0.0051703765 -0.1542167
0.17337075 0.27291018 -0.035693236 0.13938874 0.017919919 0.16456963 0.012303898 0.079047054
-0.045989525 -0.0041349176 -0.17852022 0.04244378 0.04763842 0.061849084 -0.086397216 -0.041413654
0.10793948 -0.031463683 0.16902867 -0.0022618056 0.016564444 -0.24343012 0.030875608 0.35947767
-0.09748374 0.08855007 0.072008416 -0.06722359 0.004444881 0.057107333 -0.10747088 -0.068066895
-0.20729743 -0.004708024 0.024238722 -0.654013 0.0033027816 0.033575866 -0.01014783 0.104335785
0.11350596 0.0051736254 -0.6242175 0.14868742 -0.16775379 0.042180017 -0.004832993 0.08207027
0.13730438 -0.32896662 0.045009613 -0.03232224 0.031525515 -0.016213987 0.16944799 -0.047195688
-0.19278035 0.28881204 0.13952862 0.005445417 0.09091593 -0.03752095 -0.12152846 -0.120671816
0.3212114 0.16858318 0.04476108 0.018172458 0.06377597 0.25685954 -0.0063706962 -0.112869844
-0.25130585 0.028352642 -0.008965407 -0.0029417304 0.014351525 -0.005412646 -0.04332029 -0.20824994
-0.06632979 -0.036605477 -0.054556083 -0.19876578 -0.10400411 -0.007740198 -0.12177508 -0.06961583
-0.071487136 -0.009354176 -0.004915673 0.118032515 -0.07710959 0.25487602 0.0097793825 0.005713292
0.022723442 0.017287202 -0.26900598 0.20318477 -0.24739699 0.23121767 0.010430814 -0.07001917
0.03370154 0.26673838 -0.49223953 0.067695186 -0.0071130656 -0.04181585 0.030307315 -0.062197372
0.07193608 -0.0840904 -0.026991086 0.0380881 -0.10820944 -0.034551807 -0.25988168 -0.08921124
-0.08262793 -0.019065225 -0.00579365 0.21507 -0.10559103 0.0051973374 0.0069473754 -0.02085501
0.03154319 -0.030030956 -0.07205051 -0.0030060685 -0.008335677 -0.0026600847 -0.0893684 0.0042677335
0.21055093 -0.24439922 -0.006933788 -0.0609866 -0.14824599 0.020230487 -0.038891878 0.17636101
0.08707843 -0.2840297 -0.034317292 0.27214986 0.042949125 0.047759555 -0.00612805 0.14189859
